[net]
# Testing
#batch=1
#subdivisions=1
# Training
batch=32
subdivisions=1
width=96
height=96
channels=3
momentum=0.9
decay=0.0005

max_crop=512
min_crop=128


saturation = 1.5
exposure = 1.5
hue=.1
angle=30
aspect=.6

learning_rate=0.01
burn_in=1000
max_batches = 100020
policy=steps
steps=28000,35000
scales=.1,.1

[convolutional]
batch_normalize=1
filters=16
size=3
stride=2
pad=1
activation=swish

[convolutional]
batch_normalize=1
filters=16
groups=16
size=3
stride=2
pad=1
activation=relu

[avgpool]

[convolutional]
filters=8
size=1
stride=1
pad=0
activation=relu

[convolutional]
filters=16
size=1
stride=1
pad=0
activation=logistic

[scale_channels]
from=-4

[convolutional]
batch_normalize=1
filters=16
size=1
stride=1
pad=0
activation=linear

# Bottleneck 1
[convolutional]
batch_normalize=1
filters=72
size=1
stride=1
pad=0
activation=relu

[convolutional]
batch_normalize=1
filters=72
groups=72
size=3
stride=2
pad=1
activation=relu

[convolutional]
batch_normalize=1
filters=24
size=1
stride=1
pad=0
activation=linear

# Bottleneck 2
[convolutional]
batch_normalize=1
filters=88
size=1
stride=1
pad=0
activation=relu

[convolutional]
batch_normalize=1
filters=88
groups=88
size=3
stride=1
pad=1
activation=relu

[convolutional]
batch_normalize=1
filters=24
size=1
stride=1
pad=0
activation=linear

[shortcut]
from=-4
activation=linear

# Bottleneck 3
[convolutional]
batch_normalize=1
filters=96
size=1
stride=1
pad=0
activation=swish

[convolutional]
batch_normalize=1
filters=96
groups=96
size=5
stride=2
pad=1
activation=swish

[avgpool]

[convolutional]
filters=24
size=1
stride=1
pad=0
activation=relu

[convolutional]
filters=96
size=1
stride=1
pad=0
activation=logistic

[scale_channels]
from=-4

[convolutional]
batch_normalize=1
filters=40
size=1
stride=1
pad=0
activation=linear

# Bottleneck 4
[convolutional]
batch_normalize=1
filters=240
size=1
stride=1
pad=0
activation=swish

[convolutional]
batch_normalize=1
filters=240
groups=240
size=5
stride=1
pad=1
activation=swish

[avgpool]

[convolutional]
filters=64
size=1
stride=1
pad=0
activation=relu

[convolutional]
filters=240
size=1
stride=1
pad=0
activation=logistic

[scale_channels]
from=-4

[convolutional]
batch_normalize=1
filters=40
size=1
stride=1
pad=0
activation=linear

[shortcut]
from=-8
activation=linear

# Bottleneck 5
[convolutional]
batch_normalize=1
filters=240
size=1
stride=1
pad=0
activation=swish

[convolutional]
batch_normalize=1
filters=240
groups=240
size=5
stride=1
pad=1
activation=swish

[avgpool]

[convolutional]
filters=64
size=1
stride=1
pad=0
activation=relu

[convolutional]
filters=240
size=1
stride=1
pad=0
activation=logistic

[scale_channels]
from=-4

[convolutional]
batch_normalize=1
filters=40
size=1
stride=1
pad=0
activation=linear

[shortcut]
from=-8
activation=linear

# Bottleneck 6
[convolutional]
batch_normalize=1
filters=120
size=1
stride=1
pad=0
activation=swish

[convolutional]
batch_normalize=1
filters=120
groups=120
size=5
stride=1
pad=1
activation=swish

[avgpool]

[convolutional]
filters=32
size=1
stride=1
pad=0
activation=relu

[convolutional]
filters=120
size=1
stride=1
pad=0
activation=logistic

[scale_channels]
from=-4

[convolutional]
batch_normalize=1
filters=48
size=1
stride=1
pad=0
activation=linear

# Bottleneck 7
[convolutional]
batch_normalize=1
filters=144
size=1
stride=1
pad=0
activation=swish

[convolutional]
batch_normalize=1
filters=144
groups=144
size=5
stride=1
pad=1
activation=swish

[avgpool]

[convolutional]
filters=40
size=1
stride=1
pad=0
activation=relu

[convolutional]
filters=144
size=1
stride=1
pad=0
activation=logistic

[scale_channels]
from=-4

[convolutional]
batch_normalize=1
filters=48
size=1
stride=1
pad=0
activation=linear

[shortcut]
from=-8
activation=linear

# Bottleneck 8
[convolutional]
batch_normalize=1
filters=288
size=1
stride=1
pad=0
activation=swish

[convolutional]
batch_normalize=1
filters=288
groups=288
size=5
stride=2
pad=1
activation=swish

[avgpool]

[convolutional]
filters=72
size=1
stride=1
pad=0
activation=relu

[convolutional]
filters=288
size=1
stride=1
pad=0
activation=logistic

[scale_channels]
from=-4

[convolutional]
batch_normalize=1
filters=96
size=1
stride=1
pad=0
activation=linear

# Bottleneck 9
[convolutional]
batch_normalize=1
filters=576
size=1
stride=1
pad=0
activation=swish

[convolutional]
batch_normalize=1
filters=576
groups=576
size=5
stride=1
pad=1
activation=swish

[avgpool]

[convolutional]
filters=144
size=1
stride=1
pad=0
activation=relu

[convolutional]
filters=576
size=1
stride=1
pad=0
activation=logistic

[scale_channels]
from=-4

[convolutional]
batch_normalize=1
filters=96
size=1
stride=1
pad=0
activation=linear

[shortcut]
from=-8
activation=linear

# Bottleneck 10
[convolutional]
batch_normalize=1
filters=576
size=1
stride=1
pad=0
activation=swish

[convolutional]
batch_normalize=1
filters=576
groups=576
size=5
stride=1
pad=1
activation=swish

[avgpool]

[convolutional]
filters=144
size=1
stride=1
pad=0
activation=relu

[convolutional]
filters=576
size=1
stride=1
pad=0
activation=logistic

[scale_channels]
from=-4

[convolutional]
batch_normalize=1
filters=96
size=1
stride=1
pad=0
activation=linear

[shortcut]
from=-8
activation=linear

[convolutional]
batch_normalize=1
filters=576
size=1
stride=1
pad=0
activation=swish

[convolutional]
filters=2
size=1
stride=1
pad=1
activation=leaky

[avgpool]

[softmax]
groups=1

[cost]
type=sse
